data.pth (torch, 5418 bytes, 6 tensors)

l1.weight f4 [8, 54]
-0.108548686 0.28405944 -0.19257002 0.18381475 0.029621711 0.32178462 -0.09106827 -0.41475207
-0.3376681 -0.33402976 0.19428629 0.36163267 0.040251136 0.3224857 0.24948369 0.34756446
0.18885066 0.30216295 -0.27753177 0.22901502 -0.07429384 0.2698064 0.2109617 0.33112836
0.2810603 0.23179302 -0.27006525 0.40334308 -0.14781573 0.53717536 0.24079376 0.5030493
-0.13356762 -0.28219756 0.42398214 0.17602943 -0.0021300078 -0.38056085 -0.24312639 -0.3218738
0.34503978 -0.40623042 0.23301423 0.20230608 0.22384094 0.22863409 -0.37917367 -0.15958422
0.008390981 -0.32164836 0.37208575 -0.18027504 -0.2661192 -0.012343997 -0.25029054 0.47313386
0.5453053 0.24528526 0.3187685 -0.37068987 0.48789012 0.243415 0.5897482 0.26367617
0.16082197 0.13641311 0.5461688 0.305374 0.4176573 -0.048069272 0.18984944 -0.3704978
-0.020695452 0.2889319 -0.0264868 0.27772692 0.31157112 -0.29374605 0.5021725 0.19317105
0.0185798 0.4347412 0.13308792 0.49904928 -0.15154858 0.27310896 -0.120078176 0.46826175
0.63477874 -0.0026869848 0.31840453 0.47249952 0.31025586 0.41959274 -0.33484584 0.00011190468
0.07778484 0.360866 0.17463264 0.55651295 -0.46255127 -0.094004065 0.16215314 -0.10542073
0.009906486 0.0558492 0.505112 0.12466203 0.11972766 0.33454946 0.4300095 0.39462048
0.68766844 -0.6257812 0.41872188 0.36646402 0.53916043 0.35454297 0.4186061 -0.39228344
0.64638454 -0.3324246 0.20088148 -0.1819992 0.48426268 -0.6473698 0.22563171 0.622404
0.3969207 0.60347104 0.61502683 0.1273712 -0.13164204 0.37350732 0.5029976 0.21778436
0.5246146 -0.0016749206 -0.4652994 -0.3404518 0.23191993 0.33937708 0.22788541 -0.26129642
0.30661356 0.3771033 0.5557223 0.4532865 -0.42313746 0.27308768 -0.39209697 0.094002075
0.25061625 0.35548052 0.26585245 0.3417232 0.4873655 0.34929878 -0.36677915 0.07517924
0.35768995 0.46911296 -0.29864687 0.4550614 0.08555118 -0.13258976 -0.18890718 0.46158126
-0.10858459 0.0151694175 0.22385822 -0.12052316 -0.10618353 0.6938131 0.5982462 0.6919734
0.4121333 0.47533312 -0.1754876 0.4959118 -0.018968897 -0.25781253 -0.06756142 -0.28134152
-0.21761157 0.22508724 0.43156806 -0.16030617 -0.05163281 0.31987646 -0.0010680109 0.50150514
0.27221528 0.6100468 -0.15626405 0.17480323 0.1991816 0.49061692 -0.110531285 0.019731969
-0.15686904 -0.16191252 0.18539804 0.027699435 0.50737464 0.18830022 0.7342966 0.43305013
-0.2814017 0.0076428056 0.011528969 0.010823195 0.34696904 -0.006056484 0.065283604 -0.06903282
-0.2588623 0.3569923 0.34512606 -0.040091243 -0.27545467 0.26170555 0.0004528184 -0.037810758
0.0799233 -0.066155516 -0.15510961 0.5531404 0.2507782 0.53432226 0.47299963 0.37806672
-0.0729177 0.24313405 -0.35896552 -0.18247174 -0.061967045 -0.24687134 -0.2220127 0.12256059
0.40724427 -0.0015950303 -0.17187358 0.5817597 -0.052321978 0.5608504 0.41208038 0.55838996
-0.041831087 0.2593079 0.4705027 0.48668322 -0.1325284 0.22729123 -0.048951562 0.043631297
00000000: c64e debd 3d70 913e 1331 45be ef39 3c3e
00000010: 3ba9 f23c f4c0 a43e 0082 babd 625a d4be
00000020: d5e2 acbe f305 abbe fcf2 463e eb27 b93e
00000030: 60de 243d d81c a53e a778 7f3e f8f3 b13e
00000040: 1162 413e 1ab5 9a3e a518 8ebe ea82 6a3e
00000050: 5e27 98bd 1124 8a3e 5806 583e a889 a93e
00000060: 23e7 8f3e 265b 6d3e fe45 8abe fc82 ce3e
00000070: 025d 17be 5384 093f a492 763e d7c7 003f
00000080: f3c5 08be 337c 90be 3014 d93e 0f41 343e
00000090: 9a97 0bbb dfd8 c2be 20f6 78be a5cc a4be
000000a0: 0ea9 b03e 6ffd cfbe 489b 6e3e 5329 4f3e
000000b0: 8f36 653e 0e1f 6a3e 0d23 c2be 0c6a 23be
000000c0: 537a 093c 18af a4be 0682 be3e 059a 38be
000000d0: c740 88be 7a3e 4abc 1526 80be 9a3e f23e
000000e0: 2199 0b3f 0f2c 7b3e a035 a33e 10cb bdbe
000000f0: bccc f93e c841 793e bdf9 163f 9000 873e
00000100: 84ae 243e e1af 0b3e b8d1 0b3f fb59 9c3e
00000110: 2dd7 d53e 49e4 44bd e467 423e e3b1 bdbe
00000120: 8289 a9bc e2ee 933e d8fa d8bc 3932 8e3e
00000130: 4086 9f3e e265 96be 618e 003f a2ce 453e
00000140: aa34 983c 6696 de3e 3348 083e 6383 ff3e
00000150: 8d2f 1bbe f0d4 8b3e 8ceb f5bd 01c0 ef3e
00000160: dc80 223f 2018 30bb eb05 a33e 75eb f13e
00000170: dbd9 9e3e dcd4 d63e ea70 abbe 5eae ea38
00000180: a84d 9f3d 6ec3 b83e e6d2 323e a277 0e3f
00000190: 85d3 ecbe 3485 c0bd 790b 263e d3e6 d7bd
000001a0: d04e 223c 21c2 643d 054f 013f ce4e ff3d
000001b0: c733 f53d 114a ab3e 352a dc3e b20b ca3e
000001c0: 0a0b 303f 3233 20bf b762 d63e 2ca1 bb3e
000001d0: 6b06 0a3f a886 b53e 8a53 d63e 60d9 c8be
000001e0: 7579 253f 8f33 aabe e0b3 4d3e 005e 3abe
000001f0: 47f1 f73e 07ba 25bf 000c 673e de55 1f3f
00000200: 3139 cb3e 147d 1a3f 6672 1d3f 996d 023e
00000210: 2ccd 06be 5a3c bf3e 73c4 003f dd02 5f3e
00000220: 244d 063f 0289 dbba b93b eebe b34f aebe
00000230: 6b7c 6d3e d5c2 ad3e cb5a 693e a5c8 85be
00000240: 74fc 9c3e af13 c13e d143 0e3f 2b15 e83e
00000250: 79a5 d8be 26d2 8b3e efc0 c8be 2984 c03d
00000260: c650 803e 8b01 b63e d01d 883e 58f6 ae3e
00000270: f987 f93e 4ad7 b23e 7aca bbbe 93f7 993d
00000280: 2323 b73e 932f f03e 3ee8 98be cffd e83e
00000290: 7535 af3d 9cc5 07be e270 41be 6154 ec3e
000002a0: 9961 debd 2689 783c 173b 653e d9d4 f6bd
000002b0: c076 d9bd bc9d 313f aa26 193f 2b25 313f
000002c0: 2303 d33e dd5e f33e 05b3 33be 27e8 fd3e
000002d0: a964 9bbc 0100 84be a45d 8abd ff0b 90be
000002e0: 91d5 5ebe 457d 663e 7df6 dc3e 4d27 24be
000002f0: ed7c 53bd d9c6 a33e 80fc 8bba a462 003f
00000300: cd5f 8b3e 072c 1c3f af03 20be 9eff 323e
00000310: 43f6 4b3e 2432 fb3e 3a5e e2bd f0a4 a13c
00000320: 47a2 20be 65cc 25be fcd8 3d3e ede9 e23c
00000330: 4ee3 013f c6d1 403e ddfa 3b3f bfb8 dd3e
00000340: e213 90be 8070 fa3b 00e4 3c3c c553 313c
00000350: eda5 b13e 7875 c6bb 69b3 853d 1461 8dbd
00000360: 9989 84be b2c7 b63e 5db4 b03e b736 24bd
00000370: 6508 8dbe 45fe 853e 4268 ed39 74df 1abd
00000380: d4ae a33d 8b7c 87bd 0ed5 1ebe 9c9a 0d3f
00000390: 0066 803e 58c9 083f 022d f23e f691 c13e
000003a0: e055 95bd 22f8 783e 54ca b7be dfd9 3abe
000003b0: 28d1 7dbd d7cb 7cbe 4c57 63be 0c01 fb3d
000003c0: 5282 d03e 5610 d1ba a1ff 2fbe 34ee 143f
000003d0: 924f 56bd e493 0f3f 33fc d23e a5f2 0e3f
000003e0: 1357 2bbd 01c4 843e bbe5 f03e 8b2e f93e
000003f0: 86b5 07be 08bf 683e 6f81 48bd bbb6 323d

l1.bias f4 [8]
0.69997144 0.37045133 0.6868231 0.28135374 0.42584613 0.79220253 0.32547495 1.073964
00000000: 5431 333f ccab bd3e a4d3 2f3f 990d 903e
00000010: 8108 da3e c9cd 4a3f a7a4 a63e a777 893f

l2.weight f4 [8, 8]
1.4448799 -0.06342472 -0.27079192 0.01936087 0.6576143 1.6127584 -0.69148165 0.29549846
0.085864514 1.1401792 0.56758016 0.93060726 0.48322517 -0.75444573 1.1062472 0.02774971
0.5973787 1.0865133 1.042442 -0.11518884 0.48579338 0.7178947 1.0082242 -0.9184266
0.8240698 -0.5030742 -0.884365 0.8156695 0.97917044 0.34301853 0.10800508 0.3617198
-1.1111939 1.0579512 0.7104659 0.4014714 0.23767582 -0.57068497 0.41026124 0.075935386
0.2707396 -0.04858817 1.1671584 -0.41382158 -0.32201815 0.6154017 -0.2979121 1.7866111
0.9656711 0.54522794 0.041382514 0.60425603 0.43648988 1.1089284 0.3322255 -0.30870727
0.66505945 -0.19724184 -1.2726295 1.13451 0.84476054 0.6534303 0.1296421 0.40901253
00000000: d3f1 b83f d2e4 81bd 3da5 8abe b09a 9e3c
00000010: 6959 283f de6e ce3f f104 31bf 934b 973e
00000020: bcd9 af3d 64f1 913f ef4c 113f 473c 6e3f
00000030: 4a69 f73e 5b23 41bf 8299 8d3f 5c53 e33c
00000040: cfed 183f de12 8b3f bd6e 853f 20e8 ebbd
00000050: e9b9 f83e f2c7 373f 7e0d 813f 011e 6bbf
00000060: 3df6 523f 79c9 00bf bf65 62bf b7cf 503f
00000070: eaaa 7a3f 20a0 af3e c431 dd3d 5633 b93e
00000080: 9a3b 8ebf f26a 873f 18e1 353f a98d cd3e
00000090: 4a61 733e 6918 12bf c30d d23e 0384 9b3d
000000a0: 619e 8a3e 6404 47bd 7265 953f 6ce0 d3be
000000b0: 90df a4be f78a 1d3f ef87 98be acaf e43f
000000c0: 3936 773f 0f94 0b3f b680 293d 86b0 1a3f
000000d0: 9a7b df3e 5ef1 8d3f 7619 aa3e e10e 9ebe
000000e0: 5641 2a3f c4f9 49be 86e5 a2bf a037 913f
000000f0: 3a42 583f 3547 273f e6c0 043e 176a d13e

l2.bias f4 [8]
0.54788876 -0.4039309 0.020185279 -0.22173366 -0.16887738 1.1259285 -0.41558868 -0.15935943
00000000: 7042 0c3f 08d0 cebe 995b a53c 260e 63be
00000010: 31ee 2cbe 6d1e 903f 0ac8 d4be 1e2f 23be

l3.weight f4 [7, 8]
-0.018038273 0.16743645 -0.6548709 0.60309166 -0.9248403 -1.0383404 0.46188223 0.59666336
-0.08980369 0.30765867 0.45542026 -0.013792509 -0.11594317 -1.4395813 0.3994318 -0.13599315
0.4869331 -1.2404982 -1.8126363 0.69682515 -1.041177 -0.14152896 0.020968365 0.67414194
0.25783455 -1.0572625 0.64951324 -1.1116693 -1.1895152 0.09311682 0.54584837 -1.0713571
-1.2403319 0.36850092 -0.9551459 -0.41367635 0.5251473 0.44159627 -1.3351831 -0.60488945
-1.0542161 0.44515356 0.5952046 -0.8016837 0.63650113 -0.6388828 -0.22454429 -1.0374625
0.4218725 -1.5178163 -1.7290633 -0.73985237 -0.75888467 0.8919776 -1.4484923 -1.1503001
00000000: 00c5 93bc 7674 2b3e 9fa5 27bf 3764 1a3f
00000010: 55c2 6cbf 57e8 84bf d47b ec3e eebe 183f
00000020: ffea b7bd 7085 9d3e d82c e93e faf9 61bc
00000030: 9d73 edbd 3344 b8bf 5382 cc3e ca41 0bbe
00000040: 4c4f f93e a5c8 9ebf 7704 e8bf 2263 323f
00000050: 4a45 85bf f8ec 10be d9c5 ab3c 9194 2c3f
00000060: e402 843e 6154 87bf 8046 263f 2e4b 8ebf
00000070: 0942 98bf 08b4 be3d b8bc 0b3f 3b22 89bf
00000080: 32c3 9ebf 27ac bc3e 7184 74bf 63cd d3be
00000090: 0e70 063f e818 e23e 48e7 aabf 09da 1abf
000000a0: 8ef0 86bf 2beb e33e 545f 183f 253b 4dbf
000000b0: bdf1 223f d38d 23bf f0ee 65be 92cb 84bf
000000c0: acff d73e ce47 c2bf f251 ddbf f766 3dbf
000000d0: 4446 42bf a558 643f 3268 b9bf 093d 93bf

l3.bias f4 [7]
-0.69934285 -0.34176564 -0.2039292 -0.045086395 -0.35314465 -0.30936533 0.33363396
00000000: 2208 33bf e8fb aebe d1d2 50be 83ac 38bd
00000010: 60cf b4be 2265 9ebe 12d2 aa3e
